scripts/transfer/datasets/sonyc_head_v3_int8.tflite (tflite, 277792 bytes, 2 tensors)

tfl.pseudo_qconst1 i1 [23, 256]
0	0xf0	-16
1	0x72	114
2	0xf6	-10
3	0xfe	-2
4	0x6e	110
5	0x03	3
6	0x01	1
7	0xef	-17
8	0x5f	95
9	0x7b	123
10	0x67	103
11	0xe2	-30
12	0x68	104
13	0x09	9
14	0xc5	-59
15	0x7b	123
16	0x74	116
17	0x5f	95
18	0x4a	74
19	0x4c	76
20	0xe9	-23
21	0xf7	-9
22	0xf3	-13
23	0x71	113
24	0xef	-17
25	0x20	32
26	0xe7	-25
27	0x4d	77
28	0xeb	-21
29	0x03	3
30	0x04	4
31	0x30	48
32	0xf4	-12
33	0x0c	12
34	0xd2	-46
35	0xed	-19
36	0x48	72
37	0x48	72
38	0xf8	-8
39	0x4c	76
40	0xe9	-23
41	0xfc	-4
42	0xf5	-11
43	0x2f	47
44	0xea	-22
45	0x26	38
46	0x5b	91
47	0x51	81
48	0xf7	-9
49	0x1a	26
50	0xdc	-36
51	0x72	114
52	0x3e	62
53	0x01	1
54	0x52	82
55	0xfc	-4
56	0xfc	-4
57	0x4c	76
58	0x5f	95
59	0xf9	-7
60	0xf3	-13
61	0x5b	91
62	0xe4	-28
63	0x14	20
64	0x41	65
65	0x7e	126
66	0x41	65
67	0xf9	-7
68	0xfb	-5
69	0x06	6
70	0xec	-20
71	0x16	22
72	0x50	80
73	0xe8	-24
74	0xf9	-7
75	0x61	97
76	0xfd	-3
77	0xf8	-8
78	0x58	88
79	0xd4	-44
80	0xd2	-46
81	0xfe	-2
82	0xf6	-10
83	0xfd	-3
84	0xd5	-43
85	0x10	16
86	0xf9	-7
87	0xff	-1
88	0x22	34
89	0x60	96
90	0x5a	90
91	0x50	80
92	0x69	105
93	0xfd	-3
94	0x13	19
95	0xed	-19
96	0x52	82
97	0x63	99
98	0x6b	107
99	0xfd	-3
100	0xf7	-9
101	0x66	102
102	0x62	98
103	0xd8	-40
104	0xc4	-60
105	0x03	3
106	0xd3	-45
107	0xe3	-29
108	0x5a	90
109	0x4e	78
110	0xbf	-65
111	0x7b	123
112	0x59	89
113	0xe7	-25
114	0x56	86
115	0xe7	-25
116	0xd4	-44
117	0xe9	-23
118	0x75	117
119	0xfc	-4
120	0x6e	110
121	0xe8	-24
122	0x35	53
123	0xe7	-25
124	0xe3	-29
125	0xfa	-6
126	0x62	98
127	0xeb	-21
128	0x5f	95
129	0x4c	76
130	0x00	0
131	0xcc	-52
132	0x6a	106
133	0x5e	94
134	0x0b	11
135	0xf0	-16
136	0xf8	-8
137	0x10	16
138	0x09	9
139	0x72	114
140	0x58	88
141	0x6b	107
142	0x69	105
143	0xcf	-49
144	0x0e	14
145	0xc0	-64
146	0x67	103
147	0x00	0
148	0xed	-19
149	0xe6	-26
150	0xf9	-7
151	0xe6	-26
152	0xee	-18
153	0xe9	-23
154	0xed	-19
155	0xf5	-11
156	0xea	-22
157	0x18	24
158	0xf4	-12
159	0xd6	-42
160	0xf1	-15
161	0x5b	91
162	0x52	82
163	0x6a	106
164	0x29	41
165	0xde	-34
166	0x5e	94
167	0xd6	-42
168	0x72	114
169	0x0f	15
170	0xd7	-41
171	0xdf	-33
172	0x65	101
173	0x2c	44
174	0xea	-22
175	0x16	22
176	0xff	-1
177	0xe8	-24
178	0x70	112
179	0xef	-17
180	0xf3	-13
181	0xf8	-8
182	0x74	116
183	0x0f	15
184	0xdf	-33
185	0x5a	90
186	0x14	20
187	0x0e	14
188	0x46	70
189	0xf9	-7
190	0xf4	-12
191	0xee	-18
192	0x09	9
193	0x44	68
194	0x7c	124
195	0xdf	-33
196	0x03	3
197	0x04	4
198	0xf8	-8
199	0xf9	-7
200	0x7f	127
201	0xca	-54
202	0x10	16
203	0x42	66
204	0x75	117
205	0x57	87
206	0x54	84
207	0xe3	-29
208	0xec	-20
209	0x30	48
210	0xdd	-35
211	0xf1	-15
212	0xf9	-7
213	0x3e	62
214	0xfd	-3
215	0x04	4
216	0xf8	-8
217	0xff	-1
218	0x59	89
219	0x57	87
220	0x17	23
221	0xf0	-16
222	0x7f	127
223	0xda	-38
224	0x4b	75
225	0x21	33
226	0x44	68
227	0x49	73
228	0x10	16
229	0xfe	-2
230	0xe4	-28
231	0x5f	95
232	0xfe	-2
233	0x71	113
234	0x71	113
235	0x03	3
236	0x65	101
237	0x44	68
238	0x42	66
239	0xe5	-27
240	0x03	3
241	0x56	86
242	0x61	97
243	0x73	115
244	0xf6	-10
245	0xf3	-13
246	0xf5	-11
247	0x00	0
248	0x67	103
249	0xcf	-49
250	0x47	71
251	0x4f	79
252	0xf9	-7
253	0x06	6
254	0xf0	-16
255	0x57	87

tfl.pseudo_qconst3 i1 [256, 1024]
0	0xfa	-6
1	0x0c	12
2	0xe9	-23
3	0xff	-1
4	0x02	2
5	0x00	0
6	0x00	0
7	0xd7	-41
8	0x03	3
9	0x0a	10
10	0x00	0
11	0xfe	-2
12	0xea	-22
13	0x00	0
14	0x00	0
15	0xee	-18
16	0x00	0
17	0xe9	-23
18	0x08	8
19	0x00	0
20	0x17	23
21	0xff	-1
22	0x0a	10
23	0x06	6
24	0xfb	-5
25	0x01	1
26	0xf7	-9
27	0xd3	-45
28	0x00	0
29	0xe6	-26
30	0xed	-19
31	0xd8	-40
32	0x00	0
33	0x17	23
34	0x22	34
35	0x00	0
36	0x0a	10
37	0x00	0
38	0x00	0
39	0x1c	28
40	0xea	-22
41	0x0b	11
42	0xff	-1
43	0x00	0
44	0x00	0
45	0x03	3
46	0x00	0
47	0x00	0
48	0x06	6
49	0x00	0
50	0x13	19
51	0x00	0
52	0xfe	-2
53	0x00	0
54	0x00	0
55	0xfd	-3
56	0xff	-1
57	0xde	-34
58	0x00	0
59	0x1b	27
60	0x00	0
61	0x00	0
62	0xfb	-5
63	0xd7	-41
64	0xf6	-10
65	0xff	-1
66	0x00	0
67	0x00	0
68	0x00	0
69	0xff	-1
70	0x04	4
71	0x01	1
72	0x00	0
73	0x45	69
74	0x00	0
75	0xf5	-11
76	0x00	0
77	0x24	36
78	0xda	-38
79	0x00	0
80	0x00	0
81	0xfe	-2
82	0x1c	28
83	0xff	-1
84	0xf8	-8
85	0x00	0
86	0x00	0
87	0x00	0
88	0x05	5
89	0xf7	-9
90	0x00	0
91	0xfa	-6
92	0x00	0
93	0xeb	-21
94	0xfd	-3
95	0x11	17
96	0x00	0
97	0x02	2
98	0xe7	-25
99	0x00	0
100	0xfe	-2
101	0x00	0
102	0x07	7
103	0xfb	-5
104	0x4c	76
105	0x0c	12
106	0xe9	-23
107	0x37	55
108	0x00	0
109	0x00	0
110	0x00	0
111	0x1e	30
112	0x1d	29
113	0xf1	-15
114	0xef	-17
115	0x00	0
116	0xff	-1
117	0xcc	-52
118	0x06	6
119	0xef	-17
120	0x00	0
121	0x00	0
122	0x00	0
123	0x0c	12
124	0xf9	-7
125	0x00	0
126	0xe1	-31
127	0x00	0
128	0x00	0
129	0xee	-18
130	0x00	0
131	0x00	0
132	0xfa	-6
133	0x00	0
134	0x12	18
135	0x00	0
136	0x00	0
137	0x37	55
138	0x00	0
139	0xf6	-10
140	0xe8	-24
141	0xf5	-11
142	0x00	0
143	0xfe	-2
144	0xfe	-2
145	0xfa	-6
146	0xfe	-2
147	0xfd	-3
148	0x00	0
149	0x32	50
150	0x03	3
151	0x00	0
152	0x04	4
153	0x00	0
154	0x03	3
155	0xff	-1
156	0xd6	-42
157	0xc4	-60
158	0x05	5
159	0xfd	-3
160	0x00	0
161	0x23	35
162	0x00	0
163	0x01	1
164	0x0e	14
165	0x00	0
166	0x00	0
167	0x04	4
168	0x00	0
169	0x17	23
170	0x13	19
171	0x00	0
172	0xfe	-2
173	0x00	0
174	0x1c	28
175	0xde	-34
176	0x00	0
177	0xfe	-2
178	0x00	0
179	0x00	0
180	0x00	0
181	0xf0	-16
182	0xf0	-16
183	0xfa	-6
184	0xe4	-28
185	0xfd	-3
186	0x0e	14
187	0x0b	11
188	0x00	0
189	0xf9	-7
190	0x00	0
191	0x15	21
192	0x00	0
193	0x4a	74
194	0x05	5
195	0xf8	-8
196	0x00	0
197	0x00	0
198	0x00	0
199	0x00	0
200	0xfe	-2
201	0x0e	14
202	0x05	5
203	0x01	1
204	0xfe	-2
205	0x02	2
206	0x00	0
207	0xf5	-11
208	0x2a	42
209	0x0b	11
210	0x00	0
211	0xfd	-3
212	0x06	6
213	0xff	-1
214	0x00	0
215	0xe7	-25
216	0x87	-121
217	0xfa	-6
218	0xf9	-7
219	0x00	0
220	0x00	0
221	0x00	0
222	0x00	0
223	0x00	0
224	0x00	0
225	0x00	0
226	0x00	0
227	0x0e	14
228	0x00	0
229	0x00	0
230	0x00	0
231	0x01	1
232	0xd5	-43
233	0x00	0
234	0x1b	27
235	0x04	4
236	0xfc	-4
237	0xee	-18
238	0x00	0
239	0x0a	10
240	0x04	4
241	0x00	0
242	0x07	7
243	0xfe	-2
244	0x29	41
245	0xe2	-30
246	0x00	0
247	0x00	0
248	0x07	7
249	0xce	-50
250	0x15	21
251	0xf3	-13
252	0x15	21
253	0x00	0
254	0xfb	-5
255	0xf1	-15
